…
"2023-01-07T13:37:13.44654Z"},"trusted":true,"id":"lqvYYrGJZdNE","colab":{"base_uri":"https://localhost:8080/"},"executionInfo":{"status":"ok","timestamp":1711560545453,"user_tz":-420,"elapsed":332,"user":{"displayName":"Hoàng Phúc Nguyễn Văn","userId":"03015161690539755125"}},"outputId":"fd01edfd-e4a7-4633-981e-c1dc02a9bfd6"},"execution_count":22,"outputs":[{"output_type":"stream","name":"stdout","text":["\n","Model Summary:\n","+-------------+------------------+----------+\n","| Layer       | Output shape     |   Param# |\n","+=============+==================+==========+\n","| Input       | (-1, 27)         |        0 |\n","+-------------+------------------+----------+\n","| Conv2d[0]   | (1, 32, 32, 64)  |     1792 |\n","+-------------+------------------+----------+\n","| Conv2d[1]   | (1, 32, 32, 64)  |    36928 |\n","+-------------+------------------+----------+\n","| Pool2d[2]   | (1, 16, 16, 64)  |        0 |\n","+-------------+------------------+----------+\n","| Dropout[3]  | (-1, 64)         |        0 |\n","+-------------+------------------+----------+\n","| Conv2d[4]   | (1, 16, 16, 128) |    73856 |\n","+-------------+------------------+----------+\n","| Conv2d[5]   | (1, 16, 16, 128) |   147584 |\n","+-------------+------------------+----------+\n","| Pool2d[6]   | (1, 8, 8, 128)   |        0 |\n","+-------------+------------------+----------+\n","| Dropout[7]  | (-1, 128)        |        0 |\n","+-------------+------------------+----------+\n","| Flatten[8]  | (-1, 8192)       |        0 |\n","+-------------+------------------+----------+\n","| Dense[9]    | (-1, 512)        |  4194816 |\n","+-------------+------------------+----------+\n","| Dropout[10] | (-1, 512)        |        0 |\n","+-------------+------------------+----------+\n","| Dense[11]   | (-1, 10)         |     5130 |\n","+-------------+------------------+----------+\n","total trainable parameters: 4460106\n","\n","None\n"]}]},{"cell_type":"markdown","source":["<h1 style=\"font-size:50px;color:#6166B3\"><strong>Compiling & Training </strong><strong style=\"color:black\">The Model:</strong></h1>"],"metadata":{"id":"lVRDlRqUZdNE"}},{"cell_type":"code","source":["# # compile (Hidden Output)\n","# model.compile(
…
